hand_gesture/src/model/keypoint_classifier/keypoint_classifier.tflite (tflite, 7568 bytes, 8 tensors)

sequential/dense/BiasAdd/ReadVariableOp f4 [32]
0.08300276 0.12099097 0.01574787 0.17371452 0.002343692 0.09842714 0.103809446 0.15681663
-0.036319707 -0.017289901 0.019768372 0.0 0.18984796 0.050008018 0.042965874 0.14734459
0.13295585 -0.06381112 0.11992179 0.0047169486 0.07434884 0.08903675 -0.07359638 0.033784337
0.1446182 0.06146139 -0.00997969 -0.0014901308 0.0 0.039507672 0.091116205 0.0
00000000: 5afd a93d 1dca f73d ad01 813c 38e2 313e
00000010: a098 193b 2b94 c93d 0c9a d43d 8a94 203e
00000020: f9c3 14bd 8da3 8dbc 48f1 a13c 0000 0000
00000030: 8167 423e 35d5 4c3d fcfc 2f3d 80e1 163e
00000040: 9425 083e 68af 82bd 8e99 f53d a290 9a3b
00000050: 3444 983d e658 b63d b3b9 96bd 7261 0a3d
00000060: cb16 143e f0be 7b3d db81 23bc 7e50 c3ba
00000070: 0000 0000 ccd2 213d 229b ba3d 0000 0000

sequential/dense_1/BiasAdd/ReadVariableOp f4 [32]
0.08275524 0.045764912 0.10110932 0.02275615 0.0 0.018847117 0.1613276 0.04409086
0.13664833 0.07641692 0.08575949 0.06891795 -0.03139936 0.011197111 0.09652611 0.006147538
0.15545806 0.043416835 -0.014287022 0.10109154 -0.023592524 -0.019527584 -0.019195093 0.12634975
0.057255674 -0.020716457 0.12084729 0.0504271 0.035872635 0.07154962 0.08294012 -0.018746251
00000000: 947b a93d fd73 3b3d 6712 cf3d 1b6b ba3c
00000010: 0000 0000 4565 9a3c 1033 253e 9e98 343d
00000020: 8aed 0b3e 7980 9c3d aca2 af3d db24 8d3d
00000030: 9e9c 00bd 1674 373c 7baf c53d 4971 c93b
00000040: 6630 1f3e dad5 313d 1d14 6abc 1509 cf3d
00000050: 1c45 c1bc 50f8 9fbc 073f 9dbc d461 013e
00000060: ed84 6a3d 8fb5 a9bc c97e f73d a68c 4e3d
00000070: 2fef 123d 9b88 923d 82dc a93d bd91 99bc

sequential/dense_2/BiasAdd/ReadVariableOp f4 [16]
0.0034743685 0.0023446223 0.01944435 0.12321067 0.03179247 0.13948828 0.1054947 0.073912896
-0.05596384 0.07636538 0.117393106 0.045979355 -0.018502502 0.030673971 0.072113134 0.03340365
00000000: 3bb2 633b 3ca8 193b c249 9f3c e055 fc3d
00000010: d238 023d 04d6 0e3e 9b0d d83d a55f 973d
00000020: 573a 65bd 7465 9c3d cc6b f03d d954 3c3d
00000030: 8f92 97bc fb47 fb3c 0db0 933d 44d2 083d

sequential/dense_3/BiasAdd/ReadVariableOp f4 [10]
0.0001658015 -0.059269104 -0.020530347 0.086437225 0.04023293 -0.05340216 -0.0010117831 0.08462735
-0.12270951 0.017996231
00000000: 00db 2d39 29c4 72bd 422f a8bc 0006 b13d
00000010: 49cb 243d 39bc 5abd cf9d 84ba 1b51 ad3d
00000020: 204f fbbd d56c 933c

sequential/dense/MatMul i1 [32, 42] scale=0.010465788 zero_point=0
0.15698682 0.020931575 0.35583678 -0.4290973 -0.14652103 0.010465788 0.20931575 -0.3349052
0.13605525 -0.38723415 0.19884996 -0.37676835 0.0 0.052328937 0.3349052 0.0837263
0.39769992 0.17791839 0.21978155 -0.12558946 0.17791839 -0.06279473 -0.020931575 0.031397365
0.35583678 -0.4395631 -0.04186315 -0.4186315 -0.0837263 -0.19884996 0.20931575 0.09419209
-0.39769992 0.6593446 0.15698682 -0.30350783 0.052328937 -0.06279473 0.13605525 -0.052328937
0.13605525 0.15698682 -0.010465788 -0.052328937 -0.031397365 0.38723415 0.12558946 0.29304206
0.23024733 -0.04186315 0.31397364 0.4290973 -0.11512367 -0.010465788 -0.1674526 0.052328937
-0.06279473 -0.04186315 0.2721105 -0.345371 -0.11512367 0.2616447 0.09419209 -0.031397365
-0.020931575 0.052328937 0.28257626 0.46049467 -0.25117892 -0.052328937 0.010465788 -0.12558946
0.04186315 -0.29304206 0.09419209 -0.36630258 -0.4395631 -0.20931575 -0.60701567 0.06279473
-0.6802762 -0.3349052 -0.7430709 -0.6279473 -0.10465787 0.10465787 0.12558946 0.5651525
-0.020931575 0.0837263 -0.25117892 0.17791839 -0.17791839 -0.12558946 0.21978155 0.2616447
-0.052328937 -0.14652103 0.10465787 -0.17791839 -0.2721105 0.0837263 -0.11512367 0.020931575
0.30350783 -0.31397364 0.23024733 0.09419209 -0.2721105 0.11512367 0.21978155 -0.06279473
0.15698682 -0.19884996 0.010465788 -0.46049467 -0.06279473 -0.6279473 0.35583678 0.020931575
0.1674526 -0.40816572 -0.06279473 0.2616447 -0.18838418 0.345371 0.031397365 -0.14652103
-0.11512367 0.2616447 0.10465787 -0.15698682 -0.18838418 0.17791839 0.38723415 -0.073260516
-0.0837263 0.031397365 -0.13605525 0.010465788 -0.09419209 0.04186315 -0.052328937 -0.4186315
-0.19884996 -0.38723415 -0.12558946 -0.38723415 0.20931575 -0.5651525 0.3349052 -0.35583678
0.29304206 0.0 0.23024733 -0.3349052 0.15698682 -0.15698682 0.13605525 0.010465788
-0.21978155 -0.020931575 -0.10465787 -0.11512367 0.17791839 -0.37676835 -0.25117892 -0.47096044
-0.020931575 0.020931575 0.31397364 -0.40816572 0.36630258 0.073260516 0.4290973 -0.29304206
0.19884996 -0.345371 -0.020931575 -0.4290973 -0.13605525 0.0 0.020931575 -0.04186315
-0.2616447 0.24071312 0.12558946 -0.36630258 0.18838418 -0.31397364 0.052328937 0.1674526
0.13605525 0.21978155 0.0837263 -0.19884996 -0.19884996 -0.38723415 0.14652103 0.15698682
-0.15698682 -0.010465788 0.031397365 -0.345371 0.21978155 -0.06279473 -0.15698682 0.073260516
-0.10465787 0.48142624 0.0 -0.073260516 -0.17791839 -0.35583678 -0.06279473 -0.031397365
0.020931575 -0.36630258 0.47096044 0.073260516 -0.11512367 -0.031397365 0.29304206 0.04186315
-0.020931575 0.06279473 -0.031397365 -0.04186315 0.18838418 -0.15698682 0.13605525 0.12558946
0.13605525 0.14652103 0.073260516 -0.04186315 0.0 -0.15698682 -0.25117892 -0.21978155
0.073260516 0.19884996 -0.31397364 0.37676835 -0.11512367 -0.345371 0.15698682 -0.010465788
0.19884996 -0.3349052 -0.06279473 -0.3349052 0.15698682 0.17791839 -0.020931575 -0.30350783
00000000: 0f02 22d7 f201 14e0 0ddb 13dc 0005 2008
00000010: 2611 15f4 11fa fe03 22d6 fcd8 f8ed 1409
00000020: da3f 0fe3 05fa 0dfb 0d0f fffb fd25 0c1c
00000030: 16fc 1e29 f5ff f005 fafc 1adf f519 09fd
00000040: fe05 1b2c e8fb 01f4 04e4 09dd d6ec c606
00000050: bfe0 b9c4 f60a 0c36 fe08 e811 eff4 1519
00000060: fbf2 0aef e608 f502 1de2 1609 e60b 15fa
00000070: 0fed 01d4 fac4 2202 10d9 fa19 ee21 03f2
00000080: f519 0af1 ee11 25f9 f803 f301 f704 fbd8
00000090: eddb f4db 14ca 20de 1c00 16e0 0ff1 0d01
000000a0: ebfe f6f5 11dc e8d3 fe02 1ed9 2307 29e4
000000b0: 13df fed7 f300 02fc e717 0cdd 12e2 0510
000000c0: 0d15 08ed eddb 0e0f f1ff 03df 15fa f107
000000d0: f62e 00f9 efde fafd 02dd 2d07 f5fd 1c04
000000e0: fe06 fdfc 12f1 0d0c 0d0e 07fc 00f1 e8eb
000000f0: 0713 e224 f5df 0fff 13e0 fae0 0f11 fee3

sequential/dense_1/MatMul i1 [32, 32] scale=0.010920358 zero_point=0
0.45865503 0.04368143 -0.24024788 -0.27300894 0.50233644 0.32761073 -0.3603718 -0.1310443
0.032761075 0.08736286 0.05460179 -0.2620886 0.10920358 -0.1310443 1.3868854 0.40405324
-0.10920358 -0.38221252 0.65522146 0.25116822 -0.06552215 -0.14196466 0.7862658 0.40405324
-0.3166904 -0.0764425 0.18564609 0.30577 0.29484966 0.4368143 0.29484966 0.032761075
-0.4149736 0.3166904 -0.1310443 0.19656645 -0.37129217 -0.19656645 0.4149736 0.0764425
-0.010920358 -0.0764425 -0.1310443 -0.28392932 -0.2620886 0.0 0.93915075 -0.38221252
0.29484966 0.14196466 0.30577 0.25116822 -0.18564609 0.45865503 -0.40405324 0.34945145
0.30577 0.578779 -0.010920358 -0.010920358 -0.22932751 -0.70982325 0.27300894 -0.021840716
0.56785864 -0.56785864 0.4914161 0.34945145 0.4149736 0.19656645 -0.95007116 -0.16380537
0.24024788 -0.14196466 0.32761073 0.05460179 0.3385311 0.098283224 -0.18564609 0.24024788
0.14196466 -0.06552215 -0.27300894 0.4368143 0.38221252 0.1310443 0.50233644 0.05460179
-0.32761073 -0.30577 -0.04368143 0.45865503 0.1310443 -0.19656645 0.16380537 -0.098283224
0.38221252 0.0764425 -0.38221252 0.19656645 0.61154 0.2620886 0.14196466 -0.40405324
-0.21840715 -0.08736286 0.16380537 -0.1310443 -0.3603718 -0.30577 0.731664 0.5241772
-0.12012394 -0.29484966 0.2074868 -0.29484966 0.16380537 -0.06552215 0.51325685 -0.18564609
-0.05460179 -0.021840716 0.0 -0.18564609 0.22932751 1.157558 0.34945145 -0.28392932
-0.06552215 -0.22932751 0.14196466 0.021840716 0.21840715 0.21840715 0.22932751 -0.2074868
0.19656645 0.17472573 -0.010920358 -0.2074868 -0.18564609 -0.21840715 0.0 -0.29484966
-0.05460179 -0.27300894 -0.28392932 -0.05460179 -0.0764425 0.10920358 0.152885 -0.04368143
-0.30577 -0.1310443 0.2074868 -0.152885 -0.12012394 0.2074868 -0.2074868 0.16380537
-0.098283224 0.6989029 0.42589396 0.05460179 -0.010920358 0.40405324 -0.2620886 -0.44773468
-0.22932751 0.2074868 0.14196466 0.28392932 -0.27300894 0.74258435 0.9609915 -0.29484966
0.098283224 0.032761075 -0.05460179 -0.37129217 0.21840715 0.38221252 0.6443011 -0.61154
0.3603718 0.6770622 -0.19656645 -0.2620886 -0.032761075 0.7207436 0.17472573 0.27300894
0.05460179 0.3603718 0.098283224 0.5241772 0.2620886 0.3931329 0.152885 0.3385311
0.152885 0.18564609 0.40405324 0.08736286 0.32761073 0.1310443 0.8190268 0.731664
0.46957538 -0.152885 0.2620886 -0.21840715 0.1310443 0.24024788 0.4914161 -0.21840715
-0.08736286 0.27300894 0.16380537 0.10920358 -0.17472573 0.4914161 0.55693823 -0.30577
-0.010920358 0.51325685 0.032761075 0.3166904 0.4914161 -0.021840716 -0.06552215 -0.3603718
0.0 -0.21840715 -0.3931329 0.18564609 -0.4914161 0.19656645 0.4368143 -0.46957538
0.27300894 0.18564609 0.34945145 -0.32761073 0.1310443 0.45865503 -0.28392932 -0.5896993
-0.0764425 0.5896993 0.032761075 -0.16380537 -0.032761075 0.24024788 0.0 -0.30577
00000000: 2a04 eae7 2e1e dff4 0308 05e8 0af4 7f25
00000010: f6dd 3c17 faf3 4825 e3f9 111c 1b28 1b03
00000020: da1d f412 deee 2607 fff9 f4e6 e800 56dd
00000030: 1b0d 1c17 ef2a db20 1c35 ffff ebbf 19fe
00000040: 34cc 2d20 2612 a9f1 16f3 1e05 1f09 ef16
00000050: 0dfa e728 230c 2e05 e2e4 fc2a 0cee 0ff7
00000060: 2307 dd12 3818 0ddb ecf8 0ff4 dfe4 4330
00000070: f5e5 13e5 0ffa 2fef fbfe 00ef 156a 20e6
00000080: faeb 0d02 1414 15ed 1210 ffed efec 00e5
00000090: fbe7 e6fb f90a 0efc e4f4 13f2 f513 ed0f
000000a0: f740 2705 ff25 e8d7 eb13 0d1a e744 58e5
000000b0: 0903 fbde 1423 3bc8 213e eee8 fd42 1019
000000c0: 0521 0930 1824 0e1f 0e11 2508 1e0c 4b43
000000d0: 2bf2 18ec 0c16 2dec f819 0f0a f02d 33e4
000000e0: ff2f 031d 2dfe fadf 00ec dc11 d312 28d5
000000f0: 1911 20e2 0c2a e6ca f936 03f1 fd16 00e4

sequential/dense_2/MatMul f4 [16, 32]
0.17930028 -0.20592022 -0.10683862 0.013274821 0.23364815 -0.2546057 -0.33630797 0.040686786
-0.20725285 -0.116103455 0.23457049 -0.06448895 0.26938376 -0.33282536 0.03211385 0.25472328
-0.10191244 -0.22791474 -0.34097508 -0.011355506 0.23387174 0.02759397 0.22686073 -0.15970746
0.274866 0.2522911 0.31979328 -0.2536944 0.35840803 -0.25574952 -0.06060017 -0.18141165
-0.8440392 0.15609677 -0.10531917 -0.4745382 0.10572234 0.12633623 -0.1791155 -0.030009022
0.92548954 0.28310072 0.16100217 0.34615704 0.2795868 0.3785731 -0.56828934 -0.21507601
-0.42785677 0.43164292 0.1419842 -0.20021904 0.068956316 0.2767415 -0.28769433 0.30689818
0.42952147 -0.7636681 0.09902232 0.13997735 0.090173475 0.2331138 8.871262e-06 0.17453419
-0.24596372 0.72670376 -0.6235765 -1.1852874 0.3236278 0.59608155 0.1462514 0.27699175
-0.7551841 0.65230983 0.7500796 0.7919948 0.07043564 -0.014198071 -0.72791886 -0.08669321
-0.2655821 -0.18315299 0.28359208 -0.41056788 -0.8105242 0.307386 0.1137422 0.36344573
0.7006271 -0.3329291 0.18124701 0.5230083 -0.33305755 0.5160656 0.59767514 0.08055016
0.6414066 0.09770124 0.28477582 0.5005655 0.041272312 0.19552068 0.18396269 0.78057814
-0.38331994 0.49217853 -0.86344963 0.4620976 -0.047465444 -0.13325223 -0.21212228 0.23378135
0.15427385 0.37163386 0.06230154 -0.49475983 -0.038758527 -0.072400026 0.14068627 0.20666859
-0.16164164 -0.27711922 -0.28095272 -0.10900465 -0.1965161 -0.023717286 0.18486604 -0.30123404
1.0361001 -0.47157785 0.22724602 0.89643466 -0.29978555 0.2927088 0.4338424 0.11996661
0.41547793 -0.35610992 0.5077861 -0.33094043 0.17451566 0.16503814 0.38906187 -0.0003113925
-0.22298251 -0.08261471 -0.11879999 0.60218775 0.96641016 0.3038951 0.1507145 -0.29372433
-0.14748068 1.9150039 -0.15780675 -0.56006545 -0.18865913 0.12722471 -0.2780546 -0.3169143
-0.09074544 0.11183302 0.5990378 -0.37612113 -0.15779847 -0.74147516 0.2761583 -0.36910546
-1.0741315 -0.34281102 0.49551773 -0.13302891 -0.28946766 -0.14769433 -0.016204484 -0.3130285
0.9998823 0.5223305 -0.0100230165 -0.058871835 -0.7093896 0.030596914 0.32880798 -0.15054612
0.07688169 -0.83378345 0.6859527 0.3758562 0.40795505 0.21845748 0.53732574 0.16016173
0.617327 0.25059965 0.49762222 0.49825284 -0.16259141 0.67499334 0.4328797 0.031551942
-0.8440339 -0.4366803 -0.7730596 0.1392051 -0.21704598 0.36853325 -0.44337574 0.3530361
0.070007525 -0.14768074 0.28620535 -0.12358054 0.31480098 -0.30991152 0.015402406 -0.03784457
-0.45293576 0.68792677 -0.39494798 -0.05834008 0.46191728 0.14776441 -0.31312752 0.20803086
0.7889299 0.34861648 -0.11409748 0.18334942 0.04921201 -0.60951877 0.37431458 -0.21185932
-0.8491818 -0.38358602 0.6253606 -0.0019360179 -0.2343262 -0.28057054 0.6208929 -0.36330113
0.51080513 -0.22599296 -0.27930897 0.44572794 -0.28381923 -0.19137041 -0.0038054807 -0.04326999
0.26950663 -0.24762474 0.5589515 0.05976191 -0.20180154 0.0963191 -0.08839363 0.25916663
00000000: 7e9a 373e c0dc 52be 35ce dabd a37e 593c
00000010: 7641 6f3e ae5b 82be 8f30 acbe 30a7 263d
00000020: 173a 54be a6c7 edbd 3f33 703e c812 84bd
00000030: abec 893e 1668 aabe d089 033d 176b 823e
00000040: 78b7 d0bd 7b62 69be 4994 aebe 720c 3abc
00000050: 137c 6f3e c00c e23c 2e4e 683e 5a8a 23be
00000060: 3dbb 8c3e 4d2c 813e f2bb a33e 3be4 81be
00000070: 4281 b73e 9af1 82be e237 78bd fac3 39be
00000080: f412 58bf d5d7 1f3e 94b1 d7bd acf6 f2be
00000090: f484 d83d 495e 013e 0e6a 37be 7bd5 f5bc
000000a0: e2ec 6c3f 94f2 903e c1dd 243e 7f3b b13e
000000b0: 0026 8f3e 55d4 c13e 697b 11bf e33c 5cbe
000000c0: 0b10 dbbe 4d00 dd3e 4e64 113e 3806 4dbe
000000d0: f838 8d3d 10b1 8d3e ac4c 93be c221 9d3e
000000e0: 3dea db3e c17f 43bf 37cc ca3d 3956 0f3e
000000f0: dfac b83d 62b5 6e3e c8d5 1437 17b9 323e
00000100: eadd 7bbe 4209 3a3f b6a2 1fbf 7fb7 97bf
00000110: 8bb2 a53e cd98 183f edc2 153e ddd1 8d3e
00000120: bf53 41bf c7fd 263f 3705 403f 2cc0 4a3f
00000130: 9040 903d 079f 68bc e458 3abf 368c b1bd
00000140: 61fa 87be 758c 3bbe fb32 913e f435 d2be
00000150: 847e 4fbf b361 9d3e acf1 e83d 8f15 ba3e
00000160: 4c5c 333f af75 aabe d198 393e dfe3 053f
00000170: 8586 aabe e01c 043f 3d01 193f 7bf7 a43d
00000180: 3933 243f 9617 c83d 23ce 913e 1025 003f
00000190: 280d 293d 9336 483e b760 3c3e f8d3 473f
000001a0: 8342 c4be d3fe fb3e 090b 5dbf 0e98 ec3e
000001b0: 206b 42bd 4673 08be 9536 59be 6164 6f3e
000001c0: f7f9 1d3e cb46 be3e e62f 7f3d 2951 fdbe
000001d0: 43c1 1ebd 7746 94bd 1010 103e eea0 533e
000001e0: 6385 25be 92e2 8dbe 09d9 8fbe d43d dfbd
000001f0: 843b 49be c14a c2bc 864d 3d3e 593b 9abe
00000200: ee9e 843f a772 f1be 2eb3 683e be7c 653f
00000210: 7e7d 99be eedd 953e 9720 de3e 0eb1 f53d
00000220: 86b9 d43e 0a54 b6be 45fe 013f 0671 a9be
00000230: 3cb4 323e c2ff 283e 1e33 c73e 6542 a3b9
00000240: 8755 64be e731 a9bd 694d f3bd fa28 1a3f
00000250: a866 773f 2398 9b3e e754 1a3e 0963 96be
00000260: 2d05 17be d91e f53f 1898 21be 7360 0fbf
00000270: dc2f 41be 3247 023e 2c5d 8ebe 9742 a2be
00000280: bfd8 b9bd b608 e53d 8b5a 193f f392 c0be
00000290: ec95 21be 51d1 3dbf 9f64 8d3e 64fb bcbe
000002a0: 247d 89bf ed84 afbe 80b4 fd3e bb38 08be
000002b0: 1b35 94be 2f3d 17be 44bf 84bc 4645 a0be
000002c0: 49f8 7f3f 74b7 053f 9437 24bc 9823 71bd
000002d0: 8f9a 35bf 61a6 fa3c 8559 a83e c328 1abe
000002e0: 2674 9d3d d572 55bf 999a 2f3f 3970 c03e
000002f0: 7cdf d03e 51b3 5f3e 2e8e 093f 7001 243e
00000300: 2409 1e3f 994e 803e 57c8 fe3e ff1a ff3e
00000310: 5d7e 26be 5dcc 2c3f 68a2 dd3e 9c3c 013d
00000320: 9b12 58bf 8f94 dfbe 3ce7 45bf c88b 0e3e
00000330: 4d41 5ebe 64b0 bc3e 2502 e3be 26c1 b43e
00000340: 1b60 8f3d 9f39 17be 8289 923e cb17 fdbd
00000350: 982d a13e b9ac 9ebe 605a 7c3c e802 1bbd
00000360: 32e7 e7be f81b 303f 9f36 cabe 02f6 6ebd
00000370: 6c80 ec3e 8e4f 173e 4052 a0be 0b06 553e
00000380: 4ff7 493f dc7d b23e f1ab e9bd f3bf 3b3e
00000390: 8892 493d 6c09 1cbf 29a6 bf3e a6f1 58be
000003a0: fa63 59bf 6365 c4be a217 203f fbc1 fdba
000003b0: 35f3 6fbe f1a6 8fbe d6f2 1e3f 9b02 babe
000003c0: 20c4 023f b36a 67be 9601 8fbe 7436 e43e
000003d0: c150 91be 9bf6 43be 5f65 79bb df3b 31bd
000003e0: c6fc 893e 5791 7dbe 7217 0f3f e8c8 743d
000003f0: 10a5 4ebe f342 c53d b807 b5bd 7db1 843e

sequential/dense_3/MatMul f4 [10, 16]
-0.4619811 -0.35872036 -0.7278358 0.37214667 0.29879162 -0.65110946 0.6091527 -1.1019996
-0.21782038 -0.8472269 0.6000226 -0.28979367 -0.22105639 0.5121324 -0.46114236 0.3252022
0.39628762 -0.3561558 -0.51393455 -1.4114665 0.80662566 -0.9537393 0.17741464 -0.14549339
0.23610319 -0.07887469 -0.16822349 -0.36968896 0.11695354 0.10187053 0.6663536 0.49293125
0.20026489 -0.5452676 -1.1300704 -0.25545982 -0.37817368 0.6249171 -0.29593953 0.40378627
-0.56620735 0.50624824 0.0059332605 -0.6024889 0.21394591 -0.07478406 0.72167665 0.40397608
-0.49091813 -0.35660994 -1.0572761 0.4415226 0.37069708 0.079483 0.69950753 -0.01121607
-0.19146739 -0.29125768 -1.2565922 -0.055854037 0.009018295 0.14116548 -0.030840656 0.30795178
0.256465 0.11345432 0.7443781 -0.4508682 -1.3177819 0.043629467 -0.3308568 -0.26906702
-0.48059005 0.56235164 0.19754508 -0.057692576 0.13808626 0.36370844 0.6278007 -0.5387663
-0.020921234 -0.22308007 0.479835 -0.5731034 -0.006817221 -0.123597145 0.11143428 0.032554626
0.0018232027 -0.55364627 -0.032651395 0.22320452 -0.39610037 0.42254004 -1.2446398 0.33831754
-0.39440283 0.6031299 -0.58419657 -0.42313614 -0.38339108 0.32655016 0.28353655 -0.4536674
0.5056997 0.32469815 -0.25466383 -1.0050936 -0.092303775 0.78073555 0.42056006 -0.7570875
-0.26661947 -0.59955764 0.18565378 -0.6559101 0.104024775 0.54251146 -0.5498098 0.4990085
-0.8932178 -0.34633768 0.5934324 0.5883745 -0.2625427 -0.9564816 -0.53915673 0.41982567
0.10505574 0.7413462 0.20655163 -0.32925305 0.66705227 -1.288427 -0.52389115 -0.9140436
0.54620326 0.33644754 0.21623151 -0.3977488 0.18593681 -0.062978104 -0.07531502 -0.43093583
-0.031639837 0.5437355 0.6082654 1.0164932 -1.1580775 -0.83171326 0.0072330837 -0.5386336
-0.29286608 -1.0921617 0.72891724 0.31884646 0.11068035 -0.83328336 -0.45864308 -0.87359685
00000000: c988 ecbe 32aa b7be 7253 3abf 028a be3e
00000010: 37fb 983e 1caf 26bf 6ef1 1b3f 530e 8dbf
00000020: 4e0c 5fbe dde3 58bf 159b 193f d65f 94be
00000030: 9b5c 62be 1c1b 033f da1a ecbe e780 a63e
00000040: 36e6 ca3e 0e5a b6be 3791 03bf efaa b4bf
00000050: 057f 4e3f 4228 74bf 2fac 353e 38fc 14be
00000060: 09c5 713e 0e89 a1bd c742 2cbe df47 bdbe
00000070: 5685 ef3d 7fa1 d03d 2696 2a3f 7c61 fc3e
00000080: 3d12 4d3e a896 0bbf 26a6 90bf a1cb 82be
00000090: fb9f c1be 91fa 1f3f 6385 97be 13bd ce3e
000000a0: f7f2 10bf 7c99 013f cc6b c23b b63c 1abf
000000b0: a314 5b3e 6328 99bd cdbf 383f f4d5 ce3e
000000c0: 9f59 fbbe 9495 b6be d354 87bf 400f e23e
000000d0: 02cc bd3e fcc7 a23d ed12 333f 9bc3 37bc
000000e0: 0710 44be ba1f 95be 03d8 a0bf 34c7 64bd
000000f0: 79c1 133c af8d 103e 8ba5 fcbc dbab 9d3e
00000100: 614f 833e bd5a e83d 908f 3e3f 32d8 e6be
00000110: 14ad a8bf d0b4 323d 1066 a9be 27c3 89be
00000120: e60f f6be 47f6 0f3f 4249 4a3e 0d4f 6cbd
00000130: 7c66 0d3e fe37 ba3e 8cb7 203f 97ec 09bf
00000140: 0263 abbc 1a6f 64be efac f53e e8b6 12bf
00000150: ff62 dfbb 8020 fdbd a837 e43d 0058 053d
00000160: 88f8 ee3a c3bb 0dbf 78bd 05bd ba8f 643e
00000170: abcd cabe 2b57 d83e 5b50 9fbf f537 ad3e
00000180: 2bef c9be b966 1a3f e88d 15bf 4da5 d8be
00000190: d64b c4be 9531 a73e b42b 913e 1847 e8be
000001a0: 8975 013f d63e a63e 4c63 82be e8a6 80bf
000001b0: c309 bdbd 49de 473f a653 d73e 7dd0 41bf
000001c0: 5982 88be 9c7c 19bf 061c 3e3e b9e9 27bf
000001d0: f10a d53d 08e2 0a3f 56c0 0cbf 0b7e ff3e
000001e0: eca9 64bf 2c53 b1be 30eb 173f b69f 163f
000001f0: ff6b 86be fadb 74bf 2d06 0abf 64f3 d63e
00000200: 7727 d73d ddc8 3d3f 4582 533e db93 a8be
00000210: f0c3 2a3f 2deb a4bf bb1d 06bf c3fe 69bf
00000220: fad3 0b3f da42 ac3e cb6b 5d3e bba5 cbbe
00000230: 3866 3e3e aafa 80bd c33e 9abd 9fa3 dcbe
00000240: c698 01bd 4032 0b3f 48b7 1b3f 731c 823f
00000250: e23b 94bf 29eb 54bf 8103 ed3b e4e3 09bf
00000260: 8bf2 95be f4cb 8bbf 529a 3a3f d83f a33e
00000270: 61ac e23d 0f52 55bf 44d3 eabe 0ba4 5fbf
