hand_gesture/src/model/keypoint_classifier/keypoint_classifier.tflite (tflite, 7568 bytes, 8 tensors)

sequential/dense/BiasAdd/ReadVariableOp f4 [32]
0.093010865 0.08069657 0.050284557 0.036520116 -0.014066902 0.01213968 0.04775586 0.068578176
0.09088557 0.0 0.07068745 0.05384939 -0.08586777 -0.020812865 0.0495142 0.06835069
0.039378393 0.037226237 0.34160492 0.15158802 0.095689796 -0.0045705917 -0.0059456946 -0.01397895
0.14322327 0.03003472 0.09128118 -0.0053229383 0.053313743 0.1513982 0.0 0.051790845
00000000: 7b7c be3d 3e44 a53d 2ef7 4d3d 1e96 153d
00000010: dd78 66bc 82e5 463c a69b 433d b772 8c3d
00000020: 3722 ba3d 0000 0000 95c4 903d 2e91 5c3d
00000030: 71db afbd be7f aabc 67cf 4a3d 72fb 8b3d
00000040: 3d4b 213d 8a7a 183d d7e6 ae3e e439 1b3e
00000050: 03f9 c33d e7c4 95bb 1ad4 c2bb f707 65bc
00000060: 1fa9 123e 600b f63c a1f1 ba3d 0b6c aebb
00000070: 835f 5a3d 2108 1b3e 0000 0000 a322 543d

sequential/dense_1/BiasAdd/ReadVariableOp f4 [32]
0.08653105 0.077964514 0.13341837 0.015466805 0.029921105 0.038385447 0.018789535 0.051112223
0.1821634 0.0014556018 0.0 0.0 0.070302404 0.0030287192 0.03171945 0.007521003
-0.005931241 0.117952034 0.12242324 0.16236249 0.22341496 -0.075666666 0.1976713 0.046429295
0.0 -0.009226436 0.042657457 0.19682793 -0.005986147 0.17001434 -0.05761736 0.110087395
00000000: 3137 b13d dcab 9f3d d39e 083e 7b68 7d3c
00000010: 1b1d f53c 0f3a 1d3d 83ec 993c 0d5b 513d
00000020: 0b89 3a3e e4c9 be3a 0000 0000 0000 0000
00000030: b5fa 8f3d 7a7d 463b 41ec 013d bf72 f63b
00000040: db5a c2bb d690 f13d 09b9 fa3d 5a42 263e
00000050: e4c6 643e 20f7 9abd 586a 4a3e a52c 3e3d
00000060: 0000 0000 7a2a 17bc 96b9 2e3d 438d 493e
00000070: 7127 c4bb 3d18 2e3e 2e00 6cbd 8075 e13d

sequential/dense_2/BiasAdd/ReadVariableOp f4 [16]
-0.04079037 0.0 -0.046228237 -0.011813937 0.26564735 0.0013390501 0.07126271 0.0010362364
-0.006004753 0.07545013 0.04778617 0.06423485 0.003936888 -0.016191501 -0.0029575236 -0.016377311
00000000: ce13 27bd 0000 0000 d259 3dbd 3e8f 41bc
00000010: ee02 883e 1183 af3a 2ff2 913d 53d2 873a
00000020: 85c3 c4bb 9985 9a3d 6ebb 433d 908d 833d
00000030: 0301 813b 0aa4 84bc 03d3 41bb b629 86bc

sequential/dense_3/BiasAdd/ReadVariableOp f4 [10]
0.1352466 0.20634001 -0.048351176 0.033997595 0.11032603 -0.15273003 0.0897977 -0.114049494
0.09865436 -0.1347213
00000000: 167e 0a3e cc4a 533e e20b 46bd 1041 0b3d
00000010: 9df2 e13d 4365 1cbe dbe7 b73d c892 e9bd
00000020: 4c0b ca3d 61f4 09be

sequential/dense/MatMul i1 [32, 42] scale=0.0092498725 zero_point=0
0.15724783 0.25899643 -0.15724783 -0.027749617 0.18499745 -0.14799796 0.2774962 0.1387481
0.12949821 -0.027749617 -0.1387481 -0.0092498725 0.03699949 0.28674605 -0.046249364 -0.23124681
-0.14799796 -0.4717435 0.1017486 0.08324885 0.21274707 -0.3329954 -0.15724783 -0.11099847
-0.018499745 -0.7399898 -0.32374555 -0.15724783 0.027749617 0.2682463 -0.38849464 0.38849464
-0.018499745 0.59199184 -0.29599592 -0.14799796 0.25899643 0.15724783 0.027749617 0.0092498725
-0.018499745 -0.08324885 -0.07399898 0.055499233 0.0 0.29599592 0.046249364 -0.18499745
0.11099847 0.06474911 0.11099847 -0.28674605 -0.34224528 -0.18499745 0.0 -0.1017486
-0.31449565 -0.35149515 0.15724783 -0.24974656 0.06474911 -0.4069944 -0.08324885 -0.12024834
0.21274707 0.2774962 0.07399898 0.38849464 -0.08324885 -0.2034972 -0.1017486 -0.44399387
-0.12949821 -0.4069944 -0.2034972 -0.44399387 -0.03699949 -0.42549413 0.24974656 -0.37924477
-0.027749617 0.18499745 -0.03699949 0.03699949 -0.08324885 0.2774962 -0.027749617 0.5549924
-0.38849464 0.4069944 -0.37924477 0.51799285 0.1387481 0.41624427 -0.22199693 0.03699949
-0.055499233 0.24974656 0.0 0.018499745 0.29599592 -0.41624427 -0.027749617 0.055499233
-0.07399898 -0.24974656 0.23124681 -0.38849464 0.49949312 -0.59199184 0.1017486 0.3052458
-0.14799796 0.055499233 -0.06474911 -0.2682463 -0.08324885 -0.46249363 0.027749617 0.1017486
-0.2034972 0.12024834 0.24049668 -0.18499745 0.0092498725 -0.22199693 0.21274707 -0.17574757
-0.1017486 0.07399898 -0.17574757 0.21274707 0.2034972 0.1664977 -0.14799796 0.06474911
-0.22199693 -0.055499233 -0.027749617 0.07399898 0.018499745 0.1017486 -0.06474911 0.22199693
0.018499745 -0.18499745 0.24049668 0.055499233 0.24974656 -0.24974656 0.3977445 -0.54574245
-0.15724783 -0.1017486 -0.027749617 0.0092498725 0.12949821 -0.046249364 -0.2774962 0.34224528
-0.09249873 0.38849464 -0.08324885 0.0092498725 0.38849464 -0.434744 0.027749617 -0.3977445
0.12024834 0.19424732 -0.1387481 -0.19424732 -0.1387481 0.1387481 -0.09249873 0.08324885
-0.2682463 0.12024834 0.09249873 0.0 0.14799796 -0.21274707 -0.14799796 0.21274707
0.1387481 -0.06474911 0.25899643 0.07399898 0.1387481 -0.19424732 0.14799796 -0.055499233
-0.2682463 0.2682463 0.055499233 0.18499745 0.22199693 -0.03699949 0.22199693 0.24974656
-0.12949821 0.24049668 -0.23124681 0.12949821 -0.21274707 -0.21274707 -0.14799796 0.23124681
0.0092498725 -0.2682463 0.2682463 0.0092498725 -0.65674096 -0.42549413 -0.44399387 -0.24049668
-0.11099847 0.0092498725 -0.65674096 -0.44399387 -0.2034972 -0.0092498725 -0.15724783 -0.23124681
-0.0092498725 -0.17574757 -0.38849464 -0.32374555 -0.34224528 -0.18499745 -0.19424732 -0.35149515
-0.3699949 -0.055499233 -0.15724783 -0.055499233 0.2774962 -0.24049668 0.1387481 -0.38849464
-0.21274707 0.1017486 0.027749617 0.1387481 -0.046249364 -0.44399387 0.1017486 -0.018499745
-0.3329954 0.24974656 -0.1387481 0.38849464 -0.14799796 0.2682463 -0.1387481 0.1017486
00000000: 111c effd 14f0 1e0f 0efd f1ff 041f fbe7
00000010: f0cd 0b09 17dc eff4 feb0 ddef 031d d62a
00000020: fe40 e0f0 1c11 0301 fef7 f806 0020 05ec
00000030: 0c07 0ce1 dbec 00f5 deda 11e5 07d4 f7f3
00000040: 171e 082a f7ea f5d0 f2d4 ead0 fcd2 1bd7
00000050: fd14 fc04 f71e fd3c d62c d738 0f2d e804
00000060: fa1b 0002 20d3 fd06 f8e5 19d6 36c0 0b21
00000070: f006 f9e3 f7ce 030b ea0d 1aec 01e8 17ed
00000080: f508 ed17 1612 f007 e8fa fd08 020b f918
00000090: 02ec 1a06 1be5 2bc5 eff5 fd01 0efb e225
000000a0: f62a f701 2ad1 03d5 0d15 f1eb f10f f609
000000b0: e30d 0a00 10e9 f017 0ff9 1c08 0feb 10fa
000000c0: e31d 0614 18fc 181b f21a e70e e9e9 f019
000000d0: 01e3 1d01 b9d2 d0e6 f401 b9d0 eaff efe7
000000e0: ffed d6dd dbec ebda d8fa effa 1ee6 0fd6
000000f0: e90b 030f fbd0 0bfe dc1b f12a f01d f10b

sequential/dense_1/MatMul i1 [32, 32] scale=0.011337107 zero_point=0
-0.8616201 0.5668554 -0.102033965 -0.011337107 -0.26075345 0.1473824 -0.24941635 -0.22674215
-0.2834277 -0.24941635 -0.39679876 0.056685537 0.8162717 0.26075345 -0.34011322 0.21540503
0.78226036 -0.317439 0.03401132 -0.09069686 -0.20406793 -0.21540503 -0.04534843 0.2947648
0.5895296 0.21540503 0.5668554 0.23807925 -0.09069686 0.22674215 0.124708176 0.1587195
-0.3061019 0.4874956 0.17005661 -0.20406793 -0.056685537 -0.09069686 -0.74824905 -0.26075345
0.1473824 0.13604528 -0.850283 0.011337107 0.4874956 0.06802264 -0.78226036 -0.9749912
0.38546163 0.1473824 -0.102033965 0.3061019 0.20406793 -0.22674215 0.03401132 0.07935975
0.4874956 -0.18139371 0.056685537 -0.19273081 0.09069686 0.44214717 -0.22674215 -0.8729572
-0.17005661 0.41947296 -0.13604528 -0.2947648 -0.19273081 0.37412453 -0.88429433 -0.634878
0.2947648 0.23807925 0.1587195 0.3061019 -0.4761585 -0.19273081 -0.4988327 -1.065688
-0.04534843 0.8389459 -0.07935975 0.22674215 0.6462151 -0.23807925 0.24941635 -0.1587195
0.4761585 -0.23807925 -0.5215069 0.21540503 0.2834277 -0.13604528 -0.18139371 -0.8276088
0.39679876 0.0 0.011337107 0.36278743 0.022674214 -0.40813586 0.9636541 0.4988327
0.09069686 0.27209055 -0.113371074 -0.43081006 0.22674215 -0.03401132 0.113371074 1.065688
0.18139371 -0.77092326 0.13604528 -0.1587195 -0.7935975 -0.1587195 -0.022674214 -0.18139371
0.03401132 0.8162717 0.5895296 0.1587195 -0.056685537 0.23807925 -0.27209055 1.2017334
1.065688 -0.38546163 -0.09069686 0.4648214 0.102033965 0.124708176 0.34011322 0.8389459
0.2947648 -0.17005661 0.9863283 0.102033965 -0.6462151 -0.09069686 1.0203396 0.4988327
-0.18139371 0.24941635 0.40813586 -0.27209055 0.09069686 0.056685537 -0.113371074 0.0
-0.34011322 -0.6462151 -0.011337107 0.18139371 0.19273081 -0.113371074 0.26075345 0.3061019
0.4761585 0.056685537 -0.13604528 0.35145032 -0.2834277 0.24941635 0.6235409 0.43081006
0.2834277 0.1587195 0.8729572 0.317439 -0.21540503 0.113371074 0.88429433 0.8276088
-0.21540503 0.39679876 0.102033965 -0.19273081 0.09069686 -0.113371074 0.06802264 0.17005661
-0.21540503 -0.27209055 -0.056685537 -0.022674214 0.124708176 -0.41947296 -0.3061019 0.4648214
-0.18139371 0.124708176 0.3287761 0.39679876 0.056685537 -0.317439 -0.1587195 0.2947648
0.21540503 0.27209055 0.634878 -0.3287761 0.5781925 0.22674215 -0.18139371 -0.5895296
0.6235409 0.4988327 0.18139371 0.4988327 0.26075345 -0.124708176 -0.27209055 0.1473824
0.634878 0.5668554 0.41947296 -0.124708176 0.35145032 0.26075345 -0.102033965 -0.9863283
-0.37412453 0.2834277 0.35145032 -0.27209055 0.102033965 -0.13604528 0.5101698 -0.2834277
0.102033965 0.102033965 -0.8049346 0.22674215 0.17005661 -0.18139371 0.056685537 -0.3061019
-0.77092326 -0.4988327 0.03401132 -0.011337107 0.55551827 0.03401132 0.102033965 0.2834277
0.13604528 -0.27209055 -0.317439 0.27209055 -0.1473824 0.24941635 0.056685537 -0.55551827
00000000: b432 f7ff e90d eaec e7ea dd05 4817 e213
00000010: 45e4 03f8 eeed fc1a 3413 3215 f814 0b0e
00000020: e52b 0fee fbf8 bee9 0d0c b501 2b06 bbaa
00000030: 220d f71b 12ec 0307 2bf0 05ef 0827 ecb3
00000040: f125 f4e6 ef21 b2c8 1a15 0e1b d6ef d4a2
00000050: fc4a f914 39eb 16f2 2aeb d213 19f4 f0b7
00000060: 2300 0120 02dc 552c 0818 f6da 14fd 0a5e
00000070: 10bc 0cf2 baf2 fef0 0348 340e fb15 e86a
00000080: 5ede f829 090b 1e4a 1af1 5709 c7f8 5a2c
00000090: f016 24e8 0805 f600 e2c7 ff10 11f6 171b
000000a0: 2a05 f41f e716 3726 190e 4d1c ed0a 4e49
000000b0: ed23 09ef 08f6 060f ede8 fbfe 0bdb e529
000000c0: f00b 1d23 05e4 f21a 1318 38e3 3314 f0cc
000000d0: 372c 102c 17f5 e80d 3832 25f5 1f17 f7a9
000000e0: df19 1fe8 09f4 2de7 0909 b914 0ff0 05e5
000000f0: bcd4 03ff 3103 0919 0ce8 e418 f316 05cf

sequential/dense_2/MatMul f4 [16, 32]
0.5147176 -0.017700916 -0.057779152 0.25144514 0.034296833 -0.091629736 0.6775668 -0.7739634
0.42096332 -0.5506056 0.3299661 -0.19102283 0.46241486 0.8728236 0.5071787 0.32231584
-0.042407535 0.6834176 -0.6223108 -0.84443915 0.069873706 0.6458316 0.31244478 0.8763462
0.086390674 -0.26755378 -0.7118234 0.48456636 -0.12529826 -0.5809611 -0.11939995 -0.63216007
-0.118180096 0.09270933 0.23045203 -0.037949026 -0.14326632 -0.2038369 0.062346637 -0.1368064
-0.21705146 0.110479206 -0.21405213 -0.14535908 0.10291627 -0.0859133 -0.2137769 -0.20442528
-0.03270924 -0.024659365 0.010320753 0.006491035 -0.25115424 0.160507 0.32248417 -0.19065194
0.11219972 -0.073604494 -0.25381953 0.27778295 0.26687762 -0.23451374 -0.2935324 0.18311569
-0.433724 -0.05859038 -0.8867187 0.43200874 0.62403435 0.064641826 0.26869273 -0.35991248
0.2824338 0.12887982 -0.14768761 0.25254217 1.071418 0.83870375 0.5173089 0.5806199
0.34985948 0.9344069 -0.29865608 0.87738794 0.22687924 -0.8445723 -0.9211304 0.40672687
-0.32531717 0.20478858 0.66544 0.18712969 -0.1689099 -0.72492665 -0.049546365 -0.41689044
0.21322016 -0.18890925 0.15137503 0.29025248 -0.1385926 0.1102661 0.19967791 0.05294154
-0.027584447 -0.3325308 -0.31050578 0.21557221 -0.10815777 -0.058626987 0.24142121 -0.26235083
0.3323134 -0.3296933 -0.15456875 -0.2620191 -0.165799 -0.06345603 -0.013026655 -0.34116268
-0.15309641 0.19011864 0.17928578 -0.26170543 0.28040847 0.12287398 -0.30231038 -0.14330558
0.4142229 0.7829718 1.0749198 -1.1176075 -0.33440053 -0.110132575 0.6307981 1.1246518
0.72853696 -1.0641167 -0.28709614 0.33094177 -0.9213852 -0.48814648 -0.32479194 0.4820412
-0.29490393 -0.25307843 0.88875866 0.18597803 0.50642973 0.36973402 0.41425163 0.15079702
-0.046572864 -0.10884074 -0.11138329 0.22644529 0.2058638 0.9563265 0.044384535 -0.13100298
-0.44494137 -0.757978 -0.8235589 0.88661736 0.712431 0.897497 0.075573385 -0.9762381
-0.59407026 0.3609387 -0.15502858 -0.14435337 0.67530364 0.42427573 -0.021834642 0.24036095
0.28346002 0.8034911 -0.70824766 0.33919668 -0.0603431 -0.43922937 0.3199506 0.008108705
0.15033975 0.33167258 0.78670233 0.6649328 -0.34005845 -0.6849486 0.22759736 0.50327706
0.1373402 -0.5027375 0.14249824 0.87315315 0.19251603 0.22105476 0.018628033 -0.08815379
0.13745701 0.28341973 0.09409469 0.02803281 0.1786037 -0.030470269 0.18140176 -0.398538
0.054720104 0.10422355 -0.3669999 -0.47291973 -0.23330022 1.2457457 1.0664868 -0.32598597
-0.20381719 0.04415658 0.15412511 0.40201676 -0.3472665 0.3828523 0.164856 0.12168768
-0.043297075 0.097449146 0.13492092 -0.077507354 -0.13460934 -0.44850165 0.5338855 0.88583547
0.20026782 0.34540695 0.09189749 -0.19080746 -0.54989994 -0.6656788 -0.004412691 -0.17530555
0.23491687 0.17545977 0.3733602 0.27731192 0.56016165 0.5733548 -0.1297842 -0.54171914
-0.10997124 -0.062059417 0.5634298 0.20368582 0.041086648 -0.27983832 0.47695327 0.159353
00000000: 88c4 033f 8301 91bc d5a9 6cbd 6bbd 803e
00000010: d67a 0c3d 5fa8 bbbd 0575 2d3f 7722 46bf
00000020: 8188 d73e 7df4 0cbf 51f1 a83e 7d9b 43be
00000030: a4c1 ec3e 5e71 5f3f 77d6 013f 9506 a53e
00000040: 86b3 2dbd 75f4 2e3f c34f 1fbf 2a2d 58bf
00000050: f219 8f3d 3855 253f c3f8 9f3e 3958 603f
00000060: 98ed b03d cffc 88be 0f3a 36bf 1519 f83e
00000070: 304e 00be deb9 14bf f687 f4bd 3ed5 21bf
00000080: 6808 f2bd 64de bd3d 9efb 6b3e 7070 1bbd
00000090: 68b4 12be 9fba 50be 305f 7f3d fa16 0cbe
000000a0: bd42 5ebe ec42 e23d 7b30 5bbe 03d9 14be
000000b0: c4c5 d23d 50f3 afbd 55e8 5abe dc54 51be
000000c0: 20fa 05bd 7002 cabc 6018 293c c0b2 d43b
000000d0: 4a97 80be f25b 243e a51c a53e 433a 43be
000000e0: f8c8 e53d f4bd 96bd a2f4 81be 9139 8e3e
000000f0: 2fa4 883e 5f24 70be e149 96be ae82 3b3e
00000100: 1211 debe 77fc 6fbd ffff 62bf 4030 dd3e
00000110: b7c0 1f3f ef62 843d 1892 893e 7346 b8be
00000120: 2a9b 903e 12f9 033e 6c3b 17be 354d 813e
00000130: 3a24 893f 4ab5 563f 5b6e 043f 81a3 143f
00000140: c820 b33e 4a35 6f3f 73e9 98be 7f9c 603f
00000150: 0853 683e e435 58bf 34cf 6bbf 813e d03e
00000160: f98f a6be 19b4 513e 475a 2a3f ed9e 3f3e
00000170: b8f6 2cbe cb94 39bf 21f1 4abd aa72 d5be
00000180: 6356 5a3e 6d71 41be 0e02 1b3e f99b 943e
00000190: 38eb 0dbe 31d3 e13d 5e78 4c3e 3ad9 583d
000001a0: c7f8 e1bc 7a41 aabe 9dfa 9ebe f6be 5c3e
000001b0: d281 ddbd da22 70bd 1f37 773e d952 86be
000001c0: fb24 aa3e 8fcd a8be 4547 1ebe 5e27 86be
000001d0: 37c7 29be 3cf5 81bd c06d 55bc e0ac aebe
000001e0: 4ec5 1cbe 76ae 423e b196 373e 41fe 85be
000001f0: b391 8f3e 5aa5 fb3d 6dc8 9abe b3be 12be
00000200: 0615 d43e d770 483f f996 893f c30d 8fbf
00000210: 8c36 abbe 308d e1bd fc7b 213f 97f4 8f3f
00000220: 6681 3a3f fa34 88bf 44fe 92be 3371 a93e
00000230: e7df 6bbf 56ee f9be 214b a6be 1bce f63e
00000240: a6fd 96be 7f93 81be b085 633f 0671 3e3e
00000250: 61a5 013f c74d bd3e ca18 d43e 896a 1a3e
00000260: 30c3 3ebd e5e7 debd ec1c e4bd 46e1 673e
00000270: f6cd 523e d0d1 743f 8fcc 353d a525 06be
00000280: 5bcf e3be d90a 42bf c2d4 52bf 5bf9 623f
00000290: e161 363f 5dc2 653f 38c6 9a3d bdea 79bf
000002a0: fd14 18bf f5cc b83e d0bf 1ebe 5fd1 13be
000002b0: b3e0 2c3f ab3a d93e 90de b2bc 2e21 763e
000002c0: ac21 913e 98b1 4d3f b84f 35bf 30ab ad3e
000002d0: 542a 77bd ace2 e0be 91d0 a33e 60da 043c
000002e0: aaf2 193e fdd0 a93e 5365 493f 0939 2a3f
000002f0: 241c aebe cb58 2fbf 480f 693e c4d6 003f
00000300: e9a2 0c3e 68b3 00bf 0feb 113e f786 5f3f
00000310: ec22 453e 2e5c 623e d199 983c f989 b4bd
00000320: 88c1 0c3e 641c 913e b8b4 c03d 10a5 e53c
00000330: e3e3 363e c99c f9bc 62c1 393e 2c0d ccbe
00000340: 3022 603d 2873 d53d 69e7 bbbe 8922 f2be
00000350: 41e6 6ebe 9874 9f3f a482 883f a2e7 a6be
00000360: 74b5 50be 88dd 343d f9d2 1d3e 24d5 cd3e
00000370: eacc b1be 3705 c43e 03d0 283e 6437 f93d
00000380: 4658 31bd 6b93 c73d b628 0a3e 2dbc 9ebd
00000390: 08d7 09be 02a2 e5be b8ac 083f 1dc6 623f
000003a0: 0213 4d3e 2ed9 b03e c034 bc3d 0863 43be
000003b0: 3ec6 0cbf ed69 2abf 5698 90bb 4c83 33be
000003c0: 0c8e 703e baab 333e 1129 bf3e d4fb 8d3e
000003d0: c166 0f3f 61c7 123f 26e6 04be 1bae 0abf
000003e0: 9a38 e1bd 0432 7ebd ef3c 103f 0493 503e
000003f0: 794a 283d f846 8fbe 3833 f43e 6f2d 233e

sequential/dense_3/MatMul f4 [10, 16]
0.5934673 -0.09441826 -1.2705126 -0.27862537 0.20827378 -0.5001791 1.0438687 0.40941355
-0.37114573 0.14666457 -0.36892995 -0.19432741 -0.21835232 -0.2709494 0.16457081 0.33186185
-0.8220718 0.4380269 -1.3979349 0.2758356 0.40593654 -0.97176915 0.5435881 -0.14903562
-0.42904112 0.26701283 -1.1946918 -0.77134866 0.7174289 0.29375628 0.40183038 -0.46843514
-1.0443523 0.27595574 0.370237 -0.48346356 -0.5027135 0.43434066 0.926064 -0.42804372
0.4163585 0.4995173 -0.1091664 0.33611146 0.43445852 0.060494907 -0.020025462 0.3564549
-0.70014685 -0.2477279 -0.085157245 0.19147499 0.35974512 -0.18954231 -2.6605523 -0.09706612
-0.33784845 0.006532333 -1.2125798 -0.24580184 0.83812183 -0.20341879 0.023952544 0.36974612
0.02733375 0.3553095 0.7235413 0.3378555 -0.5811217 0.7605573 -0.93458176 0.026829554
0.15038808 0.14227654 0.38978425 0.38805893 -1.0062388 -0.0050497428 -0.33847433 -0.06205674
0.61099726 0.19641423 0.38816527 -0.40535694 -0.047540918 -1.2526112 -2.4638839 0.1560988
-0.2799893 -0.09182909 0.403916 -1.1213907 -0.09567677 -0.19301353 0.26720977 0.08314082
-1.2527766 -0.43219054 -0.37816355 -0.2344179 0.21298562 -0.9710025 -0.8067492 0.7764944
0.25068468 0.22670023 0.28622043 -1.1649548 -0.17064844 -0.3535544 -0.27528042 0.44035807
0.047743827 0.29768038 0.34723675 -0.17238542 -1.0411845 0.89149356 0.5969681 -0.05856115
0.39416003 -0.4207236 0.76044357 0.0064307414 0.43967047 -0.3195772 -0.13893606 -0.26545423
0.5231656 0.24592584 -1.0244186 0.38272467 0.35282102 -0.68208414 -0.53570133 -0.28636965
0.1853142 -0.6387544 0.5047228 0.9252898 -0.76107776 -0.3466792 -0.051577687 0.114346586
0.88621396 0.044822335 0.6491803 -0.41645318 -0.26280472 -0.08987639 -0.53045136 -0.9929696
0.18570869 -1.1308515 0.44085667 0.9250726 -0.08311251 -0.19669631 -0.083910465 -0.089197844
00000000: 79ed 173f 5c5e c1bd 28a0 a2bf fca7 8ebe
00000010: b945 553e bd0b 00bf 7d9d 853f a79e d13e
00000020: d006 bebe 3d2f 163e 63e4 bcbe c4fd 46be
00000030: c097 5fbe e1b9 8abe 4085 283e cce9 a93e
00000040: 4c73 52bf 1045 e03e 88ef b2bf 533a 8d3e
00000050: ead6 cf3e ddc5 78bf 9728 0b3f cb9c 18be
00000060: 47ab dbbe e8b5 883e a9eb 98bf 1b77 45bf
00000070: 6ca9 373f 3967 963e b6bc cd3e bbd6 efbe
00000080: 56ad 85bf 124a 8d3e b48f bd3e 8988 f7be
00000090: d5b1 00bf e661 de3e 8812 6d3f 8c28 dbbe
000000a0: f12c d53e bbc0 ff3e a292 dfbd cd16 ac3e
000000b0: 5971 de3e 82c9 773d 700c a4bc 4281 b63e
000000c0: d33c 33bf 62ac 7dbe ec66 aebd 0512 443e
000000d0: 8330 b83e 6117 42be 7d46 2ac0 9aca c6bd
000000e0: 79fa acbe 2e0d d63b d135 9bbf 7ab3 7bbe
000000f0: 278f 563f 044d 50be 2038 c43c 5d4f bd3e
00000100: 07eb df3c 20eb b53e 013a 393f 65fb ac3e
00000110: 64c4 14bf e2b3 423f c040 6fbf a7c9 db3c
00000120: 55ff 193e f1b0 113e cd91 c73e a9af c63e
00000130: 6fcc 80bf 5078 a5bb 824c adbe 352f 7ebd
00000140: 516a 1c3f d020 493e 99bd c63e f28a cfbe
00000150: 44ba 42bd 9055 a0bf 46b0 1dc0 5dd8 1f3e
00000160: c25a 8fbe e410 bcbd 14ce ce3e bb89 8fbf
00000170: 2ff2 c3bd 57a5 45be b8cf 883e bc45 aa3d
00000180: fc5a a0bf 1448 ddbe a79e c1be 3f0b 70be
00000190: e718 5a3e 9f93 78bf 1e87 4ebf 56c8 463f
000001a0: be59 803e 1b24 683e 7c8b 923e 3d1d 95bf
000001b0: 77be 2ebe 1505 b5be 8ef1 8cbe 9d76 e13e
000001c0: 088f 433d 9069 983e 04c9 b13e ce85 30be
000001d0: 8945 85bf ec38 643f e7d2 183f d1dd 6fbd
000001e0: 58cf c93e 1569 d7be 6eac 423f f8b8 d23b
000001f0: 7d1c e13e 9f9f a3be 4145 0ebe 9ee9 87be
00000200: 2eee 053f fcd3 7b3e 2620 83bf 7df4 c33e
00000210: f5a4 b43e 119d 2ebf b923 09bf 0b9f 92be
00000220: 01c3 3d3e 6985 23bf 8335 013f cbdf 6c3f
00000230: fed5 42bf f07f b1be 2043 53bd 8b2e ea3d
00000240: ebde 623f a097 373d ae30 263f 5a39 d5be
00000250: 578e 86be 1d11 b8bd a9cb 07bf 4133 7ebf
00000260: 6b2a 3e3e bebf 90bf f7b7 e13e 8fd1 6c3f
00000270: e436 aabd c26a 49be 40d9 abbd 5cad b6bd
